app/src/main/assets/model.tflite (tflite, 144740 bytes, 6 tensors)

dense/MatMul_bias f4 [128]
0	0x3cc680fd	0.024231428
1	0x3d1e9bb6	0.038722716
2	0x3d04a465	0.03238334
3	0xbc40e46f	-0.011773213
4	0x3cc76637	0.024340732
5	0x3d11e4d1	0.035618607
6	0xbbde71c1	-0.006788463
7	0x3d08a50c	0.033360526
8	0x3cb3e3ad	0.02195915
9	0x3c2fb106	0.010723358
10	0x3ba497ff	0.005023002
11	0x3cd05f45	0.025436053
12	0x3cd03fa0	0.025420964
13	0x3cdae514	0.026720561
14	0x3d24ad0c	0.040204093
15	0x3d0fa3ba	0.03506825
16	0x3b92a32a	0.004475017
17	0x3cffe405	0.031236658
18	0x3cfca716	0.030841392
19	0x3bb34c8d	0.005471772
20	0xbb22f246	-0.0024863645
21	0x3c0ae21e	0.008476762
22	0x3c903385	0.017602691
23	0x3b5bc199	0.0033532141
24	0x3c58510c	0.013202917
25	0xbbdab970	-0.006674938
26	0x3d130c17	0.0359002
27	0xb9a08eb8	-0.00030623912
28	0x3c8ec12e	0.0174261
29	0x3be2f149	0.006925736
30	0xbc8479cd	-0.01617136
31	0x3cd6fed1	0.026244553
32	0x3c8181de	0.015808996
33	0x3c7e2195	0.015510936
34	0x3d4e0fa2	0.050307877
35	0x3b7b34d7	0.0038331056
36	0x3cb84a61	0.022496404
37	0x3b1ec8b8	0.0024228524
38	0x3d30c8f7	0.043160405
39	0x3b8ee482	0.0043607363
40	0x3c9aaa1e	0.018879946
41	0xbc96e66d	-0.018420422
42	0x3c964231	0.01834211
43	0x3b1ed82d	0.0024237738
44	0x3cfa6cef	0.030569522
45	0x3cec4cc6	0.028845202
46	0x3baf03d1	0.005341031
47	0x3cbde68e	0.023181226
48	0x3d1ec241	0.038759474
49	0x3cb80b41	0.022466304
50	0x3d18dde2	0.03732098
51	0x3d3f8511	0.04675776
52	0x3cb72435	0.022356132
53	0x3d1299e7	0.035791304
54	0x3d12f152	0.035874672
55	0xbbdb71c8	-0.0066969134
56	0xbcedc872	-0.029026244
57	0x3d14fbb6	0.036372863
58	0xbad20156	-0.0016022127
59	0x3c758e7b	0.014987583
60	0x3c706b98	0.01467409
61	0x3cd8296f	0.026386945
62	0x3c7e9dc8	0.015540548
63	0x3c6f2c98	0.014598034
64	0x3d1e9973	0.03872056
65	0x3c6b010e	0.014343513
66	0x3c295d41	0.010337175
67	0x3be91479	0.0071130362
68	0x3d47741d	0.04869472
69	0x3d09ceb8	0.033644408
70	0x3d17b786	0.037040256
71	0x3cfb7a07	0.030697836
72	0xbb559226	-0.0032588332
73	0x3c90751c	0.017633967
74	0x3c4508f3	0.012026059
75	0x3c6149cf	0.0137505075
76	0x3d0e5798	0.034751505
77	0x3c22d2b0	0.009937927
78	0x3c1d2832	0.009592103
79	0x3ccf9bde	0.025342878
80	0x3b8b49a8	0.004250724
81	0x3ce3b6c4	0.02779711
82	0x3d22907d	0.039688576
83	0x3bf46355	0.0074581304
84	0x3c4263d2	0.011864619
85	0x3ce01f89	0.027358787
86	0x3c376e55	0.011195739
87	0x3c3cdaca	0.011526773
88	0x3c85b0a3	0.016319579
89	0x3c3f36c5	0.011670773
90	0xbb956b3b	-0.004559902
91	0x3cddd3fc	0.027078621
92	0x3cd17b18	0.025571391
93	0x3c41516e	0.0117991995
94	0x3cacecd4	0.021109022
95	0x3d0b0f3d	0.03395008
96	0x3ccc1bbc	0.024915569
97	0x3c59e941	0.013300241
98	0x3d479f37	0.048735823
99	0xbbd509c6	-0.006501409
100	0x3cf3e2f8	0.029771313
101	0x3d0c66dd	0.034277786
102	0x3c53037e	0.012879251
103	0xbc94218f	-0.018082408
104	0x3cef95d2	0.029246245
105	0x3d035b65	0.032069582
106	0x3d1fa1f9	0.03897283
107	0x3b0fb179	0.002192585
108	0x3cb4897d	0.022038216
109	0x3b9bb8d9	0.00475226
110	0x3c2e254a	0.010629008
111	0x3d094986	0.033517383
112	0x3c4280bc	0.011871513
113	0x3cc76822	0.024341647
114	0x3d0d6506	0.03452017
115	0x39c9ae57	0.000384676
116	0x3cb1aeba	0.021689761
117	0x3c99afa2	0.018760506
118	0x3c9482d6	0.018128794
119	0x3c822d70	0.015890807
120	0x3cfde3dd	0.030992443
121	0x3b38eed2	0.002821852
122	0x3b90d95b	0.004420442
123	0x3c617c45	0.013762538
124	0x3cff32ec	0.031152211
125	0xbb81a03d	-0.0039558695
126	0xbcb73c68	-0.022367671
127	0x3c7cffdb	0.01544186

dense/kernel/transpose f4 [128, 147]
0	0xbdd2e5e9	-0.10297758
1	0x3d615d7c	0.055020794
2	0xbd102640	-0.035192728
3	0xbd92d61c	-0.07169744
4	0x3ddb442c	0.10706362
5	0xbdaca36a	-0.08429606
6	0xbdcfaa9a	-0.101399615
7	0x3e0d30a6	0.13788089
8	0x3ca0f470	0.019647807
9	0x3b1ddf75	0.002408949
10	0xbe033f34	-0.12817079
11	0x3ddce95d	0.10786698
12	0xbc513640	-0.012769282
13	0xbbf105f9	-0.0073554483
14	0xbd1d33bb	-0.038379412
15	0xbe0b0140	-0.13574696
16	0x3d3486ff	0.044074055
17	0xbdec49ac	-0.11537489
18	0xbd4c2516	-0.049840055
19	0xbd2ea5ea	-0.042638697
20	0x3d0e7635	0.0347807
21	0x3de53f2c	0.1119369
22	0xbe0c78da	-0.13717976
23	0xbd127bac	-0.035762474
24	0x3d27806f	0.04089397
25	0xbddb5ecc	-0.107114404
26	0xbd81e8bb	-0.06343218
27	0xbd90d96c	-0.0707272
28	0xbdf9e6f5	-0.12202255
29	0xbce48ccc	-0.027899168
30	0x3dc32037	0.09527629
31	0x3c8f9d31	0.01753101
32	0x3db24fc4	0.0870662
33	0x3db62fb7	0.0889582
34	0x3d056b32	0.032572933
35	0x3d0cd96e	0.034387045
36	0xbe07f098	-0.13275373
37	0x3e0c44bb	0.13698094
38	0xbe161aac	-0.14658612
39	0xbe15af69	-0.14617695
40	0xbd1bcba2	-0.038035996
41	0xbc7e1888	-0.015508778
42	0xbdb47db6	-0.0881304
43	0xbbfc1774	-0.0076932255
44	0x3d0b9174	0.03407426
45	0xbc9c4cf1	-0.019079657
46	0xbe058980	-0.13040733
47	0xbd203722	-0.03911508
48	0x3d56fd24	0.052487507
49	0xbdf6533a	-0.12027593
50	0xbd2a9706	-0.041647933
51	0xbdbb7c65	-0.09154586
52	0xbe06b8b6	-0.13156399
53	0x3df00808	0.11720282
54	0xbdb249bd	-0.08705471
55	0xbd652e06	-0.055952094
56	0xbbd4d124	-0.006494658
57	0x3dd5843f	0.104256146
58	0x3cb13748	0.021632805
59	0xbd3c9bee	-0.046047144
60	0x3b9618d1	0.004580595
61	0x3dbbbe8c	0.09167203
62	0xbd268bea	-0.040660776
63	0xbc08e8a0	-0.008356243
64	0x3e257c56	0.16160712
65	0xbd4dfbe0	-0.050289035
66	0x3e0cfdfe	0.13768765
67	0x3dc4deab	0.09612783
68	0x3d17804b	0.036987584
69	0xbc8da0d8	-0.01728861
70	0xbd93daa7	-0.07219439
71	0xbdb84ec0	-0.08999395
72	0x3de9f7a3	0.11424186
73	0xbdf4fc24	-0.119621545
74	0xbb81b4e0	-0.0039583296
75	0xbcd00987	-0.025395168
76	0x3cc23848	0.023708478
77	0x3d5367aa	0.051612534
78	0xbcc891af	-0.02448353
79	0x3db75929	0.08952553
80	0xbddb5453	-0.10709443
81	0x3e2c2660	0.16811514
82	0xbd7b42f6	-0.061343156
83	0x3dbf2bdd	0.09334538
84	0xbc7dbc24	-0.015486751
85	0xbd67a8f8	-0.056557626
86	0xbb91f3b1	-0.004454099
87	0xbcc7d7a0	-0.02439481
88	0xbd05f5ed	-0.032705236
89	0x3d1fed9b	0.039044958
90	0x3dba5d90	0.09099877
91	0xbd783692	-0.060598917
92	0x3da3999c	0.07988283
93	0xbcc2ede6	-0.02379508
94	0xbe02df04	-0.12780386
95	0x3e0d5ad6	0.13804182
96	0x3d8e8fef	0.06961047
97	0x3cc11eb6	0.023574214
98	0x3ba196b7	0.0049312967
99	0x3d015ec7	0.031584527
100	0xbe077358	-0.13227594
101	0xbd2b5ea8	-0.041838318
102	0x3d113ee3	0.035460364
103	0xbcb20ae0	-0.021733701
104	0x3d6eb60d	0.058279086
105	0x3cfec07b	0.031097641
106	0x3d6fe260	0.058565497
107	0x3d4e7279	0.05040214
108	0x3da44d9b	0.080226146
109	0x3da8c980	0.08241558
110	0x3e2fc119	0.17163505
111	0x3c8b23d5	0.01698486
112	0xbe112e3d	-0.14177795
113	0x3d90e361	0.07074619
114	0xbd94d2d9	-0.072667785
115	0xbe011f3e	-0.12609574
116	0xbd6f3a54	-0.058405235
117	0x3c5f4ece	0.013629628
118	0x3d6259e4	0.055261508
119	0xbd11a71d	-0.035559762
120	0x3de7fc12	0.113273755
121	0xbd6071c8	-0.05479601
122	0x3c88abc5	0.016683469
123	0xbc36af28	-0.011150159
124	0x3cca7138	0.02471219
125	0x3d45a010	0.04824835
126	0xbd29e648	-0.04147938
127	0x3decf943	0.115709804
128	0x3d99de9b	0.07513162
129	0x3d9da826	0.076980874
130	0x3ba83628	0.005133409
131	0xbdcfcb56	-0.10146205
132	0x3d1bf817	0.038078394
133	0xbdb5f91e	-0.08885406
134	0x3e2a76e7	0.1664692
135	0xbd067492	-0.032826014
136	0xbd21694f	-0.03940707
137	0xbcabcf68	-0.020972922
138	0x3e168469	0.14698948
139	0x3e09e83a	0.13467494
140	0xbe108cdd	-0.14116235
141	0xbda042ac	-0.07825217
142	0xbd3d537a	-0.046222188
143	0xbd800f73	-0.06252947
144	0x3de2d546	0.11075835
145	0x3cb71d0a	0.022352714
146	0xbd8e6e20	-0.069545984
147	0xbde15eb0	-0.11004388
148	0x3e082e63	0.13298945
149	0xbd3e4fb7	-0.04646274
150	0x3da0acc4	0.078454524
151	0x3cd2d118	0.02573447
152	0x3de569c5	0.112018146
153	0x3deb7da0	0.114985704
154	0xbdc14d88	-0.09438616
155	0xbdb910f9	-0.090364404
156	0x3d8dbb7e	0.06920527
157	0x3e1c9010	0.1528933
158	0x3d390a24	0.045175686
159	0xbd9b0e04	-0.07571033
160	0x3dbc9687	0.09208398
161	0x3de09074	0.10965052
162	0x3d01a074	0.03164716
163	0xbd261590	-0.040547907
164	0x3ded267c	0.11579606
165	0xbe00ce69	-0.12578739
166	0x3c3e3aa3	0.01161066
167	0xbb1ae394	-0.0023634182
168	0xbd9d526c	-0.07681736
169	0x3caac9f0	0.020848244
170	0xbe00c4a2	-0.1257501
171	0xbe058e7f	-0.13042639
172	0x3b11ef29	0.0022267795
173	0xbe0a8562	-0.13527444
174	0x3d0d0060	0.034424186
175	0x3e2d5a85	0.16929062
176	0xbe1f78de	-0.15573451
177	0xbe10d32c	-0.14143056
178	0xbe080345	-0.13282497
179	0xbe0fc9ad	-0.14041777
180	0xbd8e672e	-0.06953274
181	0x3e31bf8b	0.17358224
182	0xbd1f3cab	-0.038876217
183	0xbdb31438	-0.08744091
184	0x3dfbcd9b	0.122950755
185	0xbdb62fd4	-0.08895841
186	0x3d50f340	0.05101323
187	0xbbc95832	-0.006144547
188	0xbe0c1a06	-0.13681802
189	0xbde7257c	-0.112864465
190	0xbdcb9e40	-0.09942293
191	0xbd2121d7	-0.039338913
192	0x3e284312	0.16431835
193	0x3d8b9125	0.068147935
194	0x3da623eb	0.081123196
195	0x3e352ec5	0.17693622
196	0xbdbf3205	-0.09335712
197	0xbd66d2c8	-0.05635336
198	0x3dfb2651	0.12263168
199	0xbe012dda	-0.12615147
200	0x3deac3fd	0.11463163
201	0x3d2b7175	0.041856248
202	0x3b0af9d1	0.002120603
203	0xbdfa09d0	-0.12208903
204	0x3d9d9d28	0.07695991
205	0x3d45bbea	0.048274912
206	0x3c05f680	0.008176446
207	0x3d7511fc	0.059831604
208	0xbd107bac	-0.035274193
209	0xbdf41eed	-0.11919961
210	0xbd89ffdc	-0.067382544
211	0x3cc5b869	0.024135785
212	0x3d533cf4	0.0515718
213	0xbbab4d9c	-0.0052277576
214	0xbd9a70cc	-0.075410455
215	0xbbd779a2	-0.006575779
216	0xbdb402da	-0.087896064
217	0x3d2a4793	0.041572165
218	0x3dd2bc24	0.10289791
219	0x3de46dc1	0.111537464
220	0x3e0b631a	0.13612023
221	0x3dc760ce	0.09735261
222	0x3d9d559a	0.07682343
223	0xbdc51aae	-0.09624229
224	0xbe0d224e	-0.13782617
225	0xbd20d1b1	-0.039262477
226	0x3da7cb03	0.08193018
227	0x3e27a8e7	0.16373025
228	0x3cb22452	0.021745834
229	0x3d41ca52	0.04731209
230	0x3d373f8f	0.04473835
231	0xbd9d633e	-0.076849446
232	0xbe2408ef	-0.16019033
233	0xbd7b483c	-0.061348185
234	0x3d9410cc	0.07229766
235	0x3e0cb37f	0.13740347
236	0x3df62b3f	0.12019967
237	0xbdf56803	-0.11982729
238	0x3d408331	0.047000114
239	0x3e109d84	0.14122587
240	0xbdba421a	-0.09094639
241	0xbd072b20	-0.03300011
242	0x3e09b640	0.13448429
243	0x3d954f8e	0.072905645
244	0x3df61a05	0.120166816
245	0xbdea8c36	-0.11452524
246	0x3e01f6e6	0.1269184
247	0xbde9a73a	-0.11408849
248	0x3d2a1180	0.041520596
249	0x3c3d7810	0.01156427
250	0x3db72752	0.08943047
251	0x3ab06d32	0.0013460277
252	0x3d8ff901	0.070299156
253	0x3d67579c	0.056480035
254	0x3dc80b1f	0.09767746
255	0x3dd5ffd9	0.1044919

dense_1/MatMul_bias f4 [128]
0	0xbc81abba	-0.015828956
1	0xba3a861a	-0.00071153196
2	0x3c3f5789	0.011678585
3	0xbbfb48c4	-0.0076685864
4	0xb954d0f1	-0.00020295732
5	0x3c55d6a9	0.013051667
6	0x3c8fef7e	0.017570253
7	0xbb90381a	-0.004401219
8	0xbc2bcb08	-0.010485418
9	0x3c5dd022	0.013538392
10	0x3ca08cca	0.019598383
11	0x3c1eb274	0.009686101
12	0xbbdfe499	-0.006832671
13	0x3d1cf6e4	0.03832139
14	0x3cc4fb4e	0.024045613
15	0x3c9510a7	0.018196417
16	0xbc0f45fe	-0.008744715
17	0x3c2cf795	0.010557075
18	0x3c477e7a	0.01217615
19	0xbc44a20d	-0.012001527
20	0xbb3a789f	-0.0028453243
21	0x3b54e94a	0.0032487684
22	0x3ca2ef3e	0.01988947
23	0x3cc87137	0.024468048
24	0x3c9711b4	0.018441059
25	0xbb46246f	-0.0030234118
26	0xbbc10613	-0.0058906167
27	0x389f0baa	7.5838834e-05
28	0x3c299410	0.010350242
29	0x3cbef5a2	0.023310486
30	0x3d029d42	0.031888254
31	0x3c387ef5	0.011260738
32	0xbc02e4fc	-0.007989164
33	0x3bff8622	0.0077979723
34	0xbc410262	-0.011780353
35	0x3cfa840e	0.030580547
36	0x3ce4cca1	0.027929606
37	0x3bae44cd	0.0053182603
38	0x3caac707	0.020846857
39	0x3c9626d9	0.01832907
40	0x3b699ebc	0.0035647592
41	0x3c4e0a88	0.012575753
42	0x3c741383	0.01489723
43	0x3b665624	0.0035146559
44	0x3c8bed57	0.017080946
45	0x3d15ba96	0.036554895
46	0xbb8b8f7a	-0.004259047
47	0x3c36ecb4	0.011164833
48	0xba51800d	-0.00079917983
49	0x3c27b13e	0.010235129
50	0x3c63f512	0.01391341
51	0x3b05e28c	0.0020429222
52	0x3c0ee16b	0.008720736
53	0x3b7eda33	0.003888738
54	0x3cbf0be6	0.023321103
55	0x3ce43b7f	0.027860401
56	0x3c5cddd4	0.013480622
57	0x3c7b0cde	0.015322892
58	0x3d0cfa74	0.03441854
59	0x3cf5ddd0	0.030012995
60	0x3d00980b	0.031395
61	0x3c843e0e	0.016142871
62	0x3b53dfeb	0.003232951
63	0x3cadfbf8	0.021238312
64	0x3c9a8843	0.018863803
65	0xbbb12495	-0.0054059722
66	0x3c983e81	0.018584492
67	0xbb0d3edb	-0.0021552357
68	0x3cabf151	0.020989092
69	0x3b8f6ef6	0.0043772412
70	0x3cf47a01	0.029843332
71	0x3cc2468d	0.023715282
72	0xbb02bb9c	-0.001994825
73	0x3d08ff43	0.03344656
74	0x3c84f5a9	0.016230421
75	0x3c6ae180	0.01433599
76	0x3b66c353	0.0035211637
77	0x3c4ebd74	0.012618411
78	0x3cd6e1c5	0.026230702
79	0x3c18db6c	0.009329658
80	0x3d035195	0.032060225
81	0x3d070bf7	0.032970395
82	0x3bfe23ad	0.0077557177
83	0x3c86b0f2	0.016441796
84	0x3bc13ac6	0.005896899
85	0x3bfaa825	0.007649439
86	0x3bf56d0d	0.0074898065
87	0xbb0a139f	-0.0021068824
88	0x3c900b07	0.017583383
89	0x3cb62f96	0.022239488
90	0x3cb75441	0.022379043
91	0x3bfeb3f7	0.0077729183
92	0x3c6cf0a4	0.01446167
93	0x3c9437e0	0.01809305
94	0xbb3fafd8	-0.0029249098
95	0x3b9a91a2	0.004717068
96	0x3c816e2a	0.0157996
97	0x3ac2c9c6	0.0014861159
98	0x3c38f9b6	0.0112900045
99	0x3bc60a4e	0.006043709
100	0x3c1fd058	0.009754263
101	0x3cc09c5f	0.023512064
102	0x3ccf9d13	0.025343454
103	0x3afb80e6	0.0019188195
104	0x3c1e8246	0.009674614
105	0xbbadea52	-0.005307474
106	0x3b94412e	0.0045243716
107	0x3cb35816	0.021892589
108	0x3c3850c5	0.011249726
109	0x3b2eb375	0.0026657258
110	0x3cce758c	0.025202535
111	0x3c314547	0.01081974
112	0x3cb59d02	0.022169594
113	0xba20e0ca	-0.0006137012
114	0x3cbf41b4	0.02334676
115	0x3ce4054f	0.027834563
116	0x3c7bb8d0	0.015363887
117	0x3c5dc20b	0.013535033
118	0x3c5c23cf	0.013436272
119	0x3cb03578	0.02150987
120	0x3c523e11	0.012832181
121	0x3cba34ac	0.022730194
122	0x3c8443c9	0.016145604
123	0x3baca7fa	0.005269048
124	0xbc9bee01	-0.019034388
125	0xbaa29458	-0.0012403829
126	0x3b66122e	0.003510605
127	0x3ca658eb	0.020306071

dense_1/kernel/transpose f4 [128, 128]
0	0xbcfbde92	-0.030745778
1	0x3d20173c	0.039084658
2	0xbe19c274	-0.15015584
3	0x3d972656	0.07380359
4	0x3db1deb3	0.08685055
5	0xbe12818e	-0.14307234
6	0xbd7baef0	-0.06144613
7	0x3db39eae	0.087705
8	0xbba21052	-0.004945793
9	0xbd1a35f0	-0.037649095
10	0xbd642000	-0.05569458
11	0xbd06b5fb	-0.032888394
12	0x3e019a13	0.12656431
13	0x3db56058	0.08856267
14	0x3d5d92a1	0.054094914
15	0xbd4e53a3	-0.05037273
16	0xbdf8f4b7	-0.12156051
17	0xbcbf50d8	-0.023353979
18	0xbe20807a	-0.1567401
19	0xbe1157bc	-0.14193624
20	0x3d9302e8	0.07178289
21	0x3d1d1fa1	0.03836024
22	0x3b2fb181	0.0026808681
23	0x3cc7b186	0.024376642
24	0xbd54a1bc	-0.051912054
25	0x3da82ae7	0.08211308
26	0x3cd5a398	0.026078984
27	0x3deb214c	0.1148096
28	0xbda25993	-0.07927241
29	0x3dc38792	0.09547342
30	0xbe28224f	-0.16419338
31	0x3b2fc443	0.0026819862
32	0xbdfd529f	-0.12369274
33	0xbc02ef3e	-0.00799161
34	0x3d1af962	0.037835486
35	0x3df9672b	0.12177881
36	0x3d0bf3ac	0.03416793
37	0xbe0241b2	-0.12720373
38	0x3d78bdab	0.060727756
39	0xbdf7eced	-0.12105737
40	0xbc51b9d0	-0.012800649
41	0xbc3d1471	-0.011540518
42	0xbd2ae2cd	-0.0417202
43	0xbddf38c7	-0.10899501
44	0x3df8062c	0.12110552
45	0x3d9b1d20	0.075739145
46	0xbca38e19	-0.019965218
47	0xbd8b9f89	-0.06817538
48	0x3ca1639a	0.019700814
49	0x3defe6e5	0.117139615
50	0x3ca34910	0.0199323
51	0x3da994e2	0.0828035
52	0x3c53645a	0.012902344
53	0xbdeba4fd	-0.115060784
54	0x3e1bb8ca	0.1520721
55	0xbe057edb	-0.13036673
56	0xbd79f1f7	-0.06102177
57	0xbd982a63	-0.074299596
58	0x3dd75cd6	0.10515754
59	0x3d8ee786	0.06977753
60	0xbc79d386	-0.015248185
61	0x3e158a92	0.14603642
62	0x3c1eca9a	0.009691859
63	0xbbd465a1	-0.0064818417
64	0x3ca03208	0.019555107
65	0xbd319ec1	-0.04336429
66	0xbe1d7503	-0.15376668
67	0xbd36c42c	-0.044620678
68	0x3d905263	0.07046964
69	0xbe323463	-0.17402796
70	0xbe12912b	-0.1431319
71	0xbc08d7b3	-0.008352208
72	0x3e1b38ea	0.1515843
73	0xbe2bc882	-0.16775706
74	0xbe070662	-0.13186029
75	0xbd0f96b5	-0.035055835
76	0xbc10f671	-0.008847819
77	0x3d924bde	0.07143377
78	0xbc9d2dbb	-0.019186845
79	0x3d510c4f	0.05103713
80	0x3d5b501e	0.053543203
81	0xbe1936e4	-0.14962345
82	0xbdfc183c	-0.1230931
83	0xbd7cddab	-0.061734837
84	0x3df19fd0	0.1179806
85	0x3dd01b84	0.10161498
86	0x3db6a000	0.08917236
87	0xbd387967	-0.045037653
88	0x3dc55d90	0.09636986
89	0xbdc0d99f	-0.09416508
90	0xbd8ad2ad	-0.067784645
91	0xbddded9a	-0.108363345
92	0x3d69fa68	0.05712357
93	0xbd134d19	-0.035962198
94	0xbde21674	-0.11039439
95	0xbdf941ad	-0.1217073
96	0xbe349f1d	-0.17638822
97	0xbd9738ed	-0.073839046
98	0xbd974a56	-0.07387225
99	0xbdee9dc3	-0.116511844
100	0xbce8fa71	-0.028439732
101	0xbd8ca52a	-0.0686744
102	0x3c66005d	0.014038173
103	0x3d9b77b6	0.075911924
104	0xbe1b6afa	-0.15177527
105	0xbc243964	-0.010023449
106	0xbe08f8bd	-0.13376136
107	0xbc875ea1	-0.016524615
108	0xbdb882eb	-0.090093456
109	0xbd86a47d	-0.065743424
110	0xbd11328b	-0.035448592
111	0xbd03e67a	-0.03220222
112	0xbe2927db	-0.1651911
113	0x3dd30431	0.10303534
114	0x3cbcb48c	0.02303531
115	0xbd8babab	-0.068198524
116	0x3dc4eced	0.096155025
117	0xbda10591	-0.0786239
118	0x3d067980	0.032830715
119	0x3d7c32bc	0.06157182
120	0xbdc3eab2	-0.09566249
121	0xbdd071a2	-0.10177924
122	0x3ddd8186	0.1081572
123	0xbe0311ab	-0.12799709
124	0xbd1b8c47	-0.037975576
125	0x3dbe0b68	0.09279519
126	0x3cc686ed	0.02423426
127	0x3dae8b75	0.08522693
128	0xbd9a0522	-0.0752051
129	0xbd42f932	-0.047600932
130	0x3c55b17e	0.013042806
131	0xbabf3d2e	-0.0014590377
132	0x3cf99bfc	0.030469887
133	0x3c9902f3	0.018678164
134	0x3cbdedb4	0.023184635
135	0x3db2d60c	0.087322325
136	0x3d9d4d06	0.07680707
137	0x3e237b4c	0.15965003
138	0xbe031868	-0.12802279
139	0x3cf8ce23	0.030371731
140	0xbc1c25de	-0.009530513
141	0x3dabdc66	0.08391647
142	0xbdb2c060	-0.08728099
143	0x3aad5aad	0.0013225876
144	0x3d8a8b0b	0.067648016
145	0x3ca7ba6b	0.020474633
146	0x3e0fd9a8	0.14047873
147	0xbddb724f	-0.10715162
148	0x3e10eb8b	0.14152353
149	0x3d946c2b	0.07247194
150	0x3c2211b6	0.009891918
151	0xbdbadaee	-0.09123789
152	0x3bb2922f	0.0054495553
153	0xbe09bd84	-0.134512
154	0x3dbdd5f7	0.09269326
155	0x3d66a253	0.05630715
156	0x3d21b4e4	0.03947915
157	0xbde38b39	-0.11110539
158	0xbcb576bf	-0.02215135
159	0xbd92c157	-0.07165783
160	0x3d0639ba	0.032769896
161	0xbde08654	-0.10963121
162	0xbcbe49ff	-0.023228643
163	0x3d8a1138	0.067415655
164	0xbe022db3	-0.12712745
165	0x3be21201	0.006899119
166	0xbc97483a	-0.018467057
167	0xbd908343	-0.07056286
168	0x3e2b8333	0.16749267
169	0x3deaf50c	0.1147252
170	0xbb9e1f3b	-0.0048255003
171	0xbdc3b17c	-0.09555337
172	0xbd1a0ba5	-0.03760876
173	0x3dc12e93	0.094327115
174	0x3e1a35ce	0.15059587
175	0x3d2e0acb	0.04249076
176	0x3dce643d	0.10077713
177	0x3d2dc089	0.042419944
178	0xbe225cb3	-0.15855674
179	0xbd9bad5d	-0.07601426
180	0x3d991fc0	0.07476759
181	0x3befc0ea	0.0073166983
182	0xbdd99d2c	-0.10625681
183	0xbdafd1b9	-0.08584923
184	0x3dd2fc09	0.10301978
185	0x3d9c05fb	0.07618328
186	0xbdaf371c	-0.08555433
187	0x3e10bba6	0.14134082
188	0xbd5f067d	-0.054449547
189	0x3cc33cbe	0.023832675
190	0x3d6ef220	0.058336377
191	0xbd88ba16	-0.06676118
192	0x3db29734	0.08720246
193	0x3d1e38b2	0.038628288
194	0x3dab5f77	0.08367818
195	0x3de95a00	0.11394119
196	0xbe05ef5b	-0.13079588
197	0x3dd46bec	0.10372147
198	0xbd49a795	-0.049232084
199	0x3d895d7f	0.06707286
200	0x3d13252c	0.03592412
201	0xbd963d01	-0.07335854
202	0x3d3f2a69	0.046671305
203	0xbcced1dc	-0.025246553
204	0x3dbb7325	0.091528215
205	0xbcaaf653	-0.02086941
206	0x3e0324fc	0.12807077
207	0x3ca58911	0.02020696
208	0x3d3de923	0.046364915
209	0xbe350ec0	-0.17681408
210	0x3dc7ca11	0.09755338
211	0xbd8201ff	-0.06348037
212	0x3d9355f1	0.071941264
213	0x3c178141	0.009247125
214	0x3dd7316a	0.10507472
215	0x3e0d7335	0.13813479
216	0x3dc4bfb8	0.0960688
217	0xbda8e33f	-0.08246469
218	0x3dea28a0	0.1143353
219	0xbd292bba	-0.041301467
220	0x3e05642f	0.13026498
221	0xbd6ffa8c	-0.05858855
222	0xbe251958	-0.16122949
223	0xbd24ed3d	-0.04026531
224	0x3d876962	0.06611897
225	0x3da5666b	0.08076175
226	0x3da7797e	0.0817747
227	0xbe2919ad	-0.16513701
228	0x3d0cf0f5	0.034409482
229	0x3cdaec8e	0.026724126
230	0xbd81ca8d	-0.063374616
231	0xbdbd064e	-0.09229718
232	0x3dc3a647	0.09553199
233	0xbd5d7c53	-0.054073643
234	0xbd8e3d4f	-0.069452874
235	0x3d88cdea	0.066799
236	0xbd23f9b4	-0.040033057
237	0x38622256	5.3914577e-05
238	0xbd92fb98	-0.07176894
239	0x3d1a762f	0.037710365
240	0x3d749523	0.05971254
241	0xbd5a0e35	-0.053236205
242	0x3d80650c	0.06269273
243	0xbdd4f34f	-0.1039797
244	0x3e015169	0.12628712
245	0xbdca75af	-0.098857276
246	0x3e04f29c	0.12983173
247	0xbd8058e7	-0.06266957
248	0x3c385fa0	0.0112532675
249	0xbd298689	-0.04138807
250	0x3d74f449	0.05980328
251	0xbdfb9cf2	-0.12285794
252	0x3e302e85	0.17205246
253	0xbdf7e71a	-0.12104626
254	0x3d56a7df	0.052406188
255	0x3d2fe7a0	0.042945504

dense_2/MatMul_bias f4 [3]
0	0xbbd85ac3	-0.0066026165
1	0x3a991438	0.0011678999
2	0x3c00a24e	0.007851196

dense_2/kernel/transpose f4 [3, 128]
0	0x3e05842b	0.130387
1	0x3c883a38	0.016629323
2	0xbe12c87d	-0.14334293
3	0x3df66fbf	0.120330326
4	0x3d92853c	0.07154319
5	0xbde97687	-0.113995604
6	0xbd07b25b	-0.033129077
7	0x3e30fb26	0.17283306
8	0xbc8aaadd	-0.016927177
9	0x3d255f14	0.040373877
10	0xbbc4a839	-0.006001499
11	0x3dc97164	0.09836081
12	0x3e70ab84	0.23502928
13	0xbe892519	-0.26786116
14	0xbda2e9bc	-0.079547375
15	0x3e82c10d	0.2553791
16	0x3d52d29a	0.051470377
17	0xbe5aa383	-0.21351437
18	0xbe360961	-0.17777015
19	0x3e2517aa	0.16122308
20	0x3df24162	0.11828877
21	0xbcf8a30a	-0.03035118
22	0xbdb903e3	-0.090339445
23	0xbe4d79d5	-0.20066006
24	0xbdcfd134	-0.10147324
25	0x3dde6600	0.10859299
26	0x3e2ce97d	0.16885944
27	0x3d919bda	0.071098045
28	0xbdc7f5c3	-0.09763672
29	0xbd700117	-0.05859479
30	0xbd0a9707	-0.033835437
31	0xbda4afa6	-0.08041315
32	0x3e032e58	0.12810647
33	0x3e00a968	0.12564623
34	0x3daa9c57	0.08330601
35	0x3dfc7dab	0.12328657
36	0xbe838671	-0.25688508
37	0x3d841d48	0.064508975
38	0xbd162cd9	-0.036663864
39	0x3df82875	0.121170916
40	0xbdc2a554	-0.0950419
41	0xbe458336	-0.19288334
42	0xbdf908b1	-0.12159861
43	0x3ceffb33	0.029294586
44	0xbbfbc68b	-0.0076835803
45	0xbe665229	-0.22492279
46	0x3dff844a	0.12476404
47	0x3d0181e8	0.03161803
48	0x3e40b50c	0.18819064
49	0xbdce268d	-0.10065947
50	0xbe28315e	-0.16425082
51	0xbd883608	-0.06650931
52	0x3e11dd2a	0.14244524
53	0xbdf79b77	-0.120901994
54	0x3e7cbcc3	0.24681382
55	0xbe69bee1	-0.22826721
56	0x3e2250c7	0.15851127
57	0xbe5fe748	-0.2186557
58	0x3c1042cf	0.008804991
59	0xbe04e9f8	-0.12979877
60	0xbe85d483	-0.26138696
61	0xbdd64677	-0.10462659
62	0x3dafa236	0.08575861
63	0xbe0a191a	-0.13486138
64	0xbe42ccfd	-0.1902351
65	0x3e71afcb	0.23602216
66	0xbe283b65	-0.16428907
67	0x3e223520	0.15840578
68	0xbe32e6a9	-0.17470802
69	0x3c8a402b	0.0168763
70	0xbe684132	-0.2268112
71	0xbc316c54	-0.01082905
72	0xbe4b1acd	-0.19834442
73	0xbe87ce7a	-0.26524717
74	0x3e6c9c6b	0.23106544
75	0x3d4bb517	0.049733248
76	0xbe1969c8	-0.14981759
77	0x3e712dda	0.23552647
78	0xbe4299b0	-0.1900394
79	0x3dbb8ee0	0.091581106
80	0xbd883864	-0.06651381
81	0x3c86aef7	0.016440852
82	0xbe4a38c3	-0.19748215
83	0xbdb67f0c	-0.08910951
84	0xbe3b7e4c	-0.18309897
85	0x3dd974ba	0.10617967
86	0xbd3a6e29	-0.045515213
87	0xbcba1c11	-0.022718461
88	0xbdd9ce6f	-0.10635077
89	0x3c3b4f11	0.011432425
90	0x3d9d9f3c	0.07696387
91	0xbe2bbbd6	-0.16770872
92	0xbe59e6f2	-0.21279505
93	0x3e61e393	0.22059469
94	0x3e33ebc1	0.17570402
95	0x3e430166	0.19043502
96	0x3dea3f84	0.11437896
97	0xbd98ed08	-0.07467085
98	0x3e769ac6	0.24082479
99	0xbe1ca191	-0.15296008
100	0xbdaefd34	-0.085443884
101	0xbdb9dabf	-0.09074926
102	0xbe6c79a5	-0.23093279
103	0x3e33f1eb	0.17572753
104	0x3e7bf7b1	0.24606206
105	0x3e220b85	0.15824707
106	0x3d1dbbe8	0.03850928
107	0x3e592e16	0.21208987
108	0x3e3b534f	0.18293498
109	0xbc0625e8	-0.0081877485
110	0xbd94d22d	-0.0726665
111	0x3d9583a2	0.073004976
112	0x3e76fbcd	0.24119492
113	0x3e01fdae	0.12694427
114	0x3dbe602d	0.09295688
115	0xbda13d6c	-0.078730434
116	0x3d5a91aa	0.053361572
117	0xbda9e401	-0.082954414
118	0x3d2d47a3	0.042304646
119	0xbde65f74	-0.11248675
120	0xbcff8bf2	-0.03119466
121	0x3d2ffa78	0.042963475
122	0xbd88ffc5	-0.06689409
123	0xbd6b1a07	-0.05739787
124	0x3df409d7	0.11915939
125	0x3e0e17fc	0.13876337
126	0xbd8810c4	-0.06643823
127	0xbe2dc3a8	-0.16969168
128	0x3de755d3	0.112956665
129	0xbe27950a	-0.16365448
130	0xbcae2a24	-0.021260329
131	0xbd6bc310	-0.057559073
132	0x3e4f66ea	0.20254102
133	0x3e6e4809	0.23269667
134	0xbe40fd95	-0.18846734
135	0xbd366616	-0.04453095
136	0xbb1fa940	-0.0024362355
137	0x3cba0db8	0.02271162
138	0xbd084428	-0.033268124
139	0x3daf993b	0.08574148
140	0x3df0ade9	0.11751921
141	0xbdc9a908	-0.09846693
142	0xbe3901dd	-0.18067117
143	0x3c8ab32f	0.016931145
144	0x3de41ec8	0.111386836
145	0x3dd624cb	0.104562365
146	0x3e77cf56	0.24200186
147	0x3c3fa8ad	0.01169793
148	0x3bb8abd3	0.0056357174
149	0xbcd3d106	-0.025856506
150	0x3d80120b	0.062534414
151	0x3da3a3b3	0.079902075
152	0x3d094ac2	0.03351856
153	0xbe06ca92	-0.13163212
154	0xbe82145b	-0.25406155
155	0xbe38a9b3	-0.18033485
156	0x3e36aac9	0.17838587
157	0xbcc96393	-0.024583613
158	0xbdc6a658	-0.09699696
159	0x3d26a53b	0.04068492
160	0xbe4af025	-0.1981817
161	0xbdd735af	-0.10508286
162	0xbc60d435	-0.013722469
163	0x3e41c9ae	0.18924591
164	0x3e3ba541	0.18324758
165	0xbd6b357e	-0.05742406
166	0xbdba9e8d	-0.091122724
167	0xbe4cdf27	-0.20007001
168	0x3e0b4772	0.13601473
169	0x3e5a364d	0.21309777
170	0x3d6b9fe6	0.057525538
171	0x3e045bcc	0.12925643
172	0x3e6a83e9	0.22901882
173	0x3dcc7dde	0.09984945
174	0xbc72ea4f	-0.014826371
175	0xbe268da9	-0.16264977
176	0xbe554dc3	-0.20830445
177	0x3d47e457	0.048801746
178	0xbe58d854	-0.21176273
179	0x3e298c66	0.16557464
180	0x3d8e3a80	0.06944752
181	0x3df60d86	0.12014298
182	0x3e0c52ef	0.13703512
183	0xbe10fa4f	-0.14157985
184	0x3c7c694f	0.015405967
185	0xbe11e660	-0.14248037
186	0x3e662eed	0.22478838
187	0xbdf528c6	-0.119706675
188	0xbe371744	-0.17879969
189	0x3e11f931	0.14255215
190	0x3cfd8620	0.030947745
191	0xbe6585e4	-0.22414356
192	0x3dbe2a0b	0.09285363
193	0xbe421e99	-0.18956985
194	0xbdd16a3e	-0.10225342
195	0xbd74fb6c	-0.059810087
196	0x3e3f8d07	0.18706141
197	0x3d6492aa	0.055803932
198	0x3e114c1e	0.14189193
199	0xbe3f3f97	-0.18676601
200	0xbd003fec	-0.03131096
201	0x3dd1a09c	0.10235712
202	0x3dd720ee	0.10504328
203	0xbe6a88e0	-0.22903776
204	0x3e2f3f1a	0.17113915
205	0xbd0c3e53	-0.034239125
206	0xbe396436	-0.18104634
207	0x3e3f9631	0.18709637
208	0xbe5eb044	-0.21746927
209	0x3d59e0b4	0.05319281
210	0x3e671ec2	0.22570327
211	0xbe3aa0f0	-0.18225455
212	0xbe1e47b9	-0.15457048
213	0xbda895d8	-0.082317054
214	0xbe1ceb68	-0.15324175
215	0xbd9b46ba	-0.075818494
216	0x3d246a5d	0.0401405
217	0xbe3c9391	-0.18415667
218	0x3d8a529c	0.06754038
219	0xbe66d4e6	-0.22542152
220	0xbe2869cd	-0.1644661
221	0xbdffdba9	-0.12493069
222	0x3ca181de	0.019715246
223	0xbde782c1	-0.11304236
224	0x3e24ae0a	0.16082016
225	0x3e32fb86	0.17478761
226	0x3e1702a5	0.14747103
227	0x3d009e52	0.031400986
228	0xbd09be22	-0.03362859
229	0x3d0ca71c	0.034339055
230	0x3e0464d7	0.12929092
231	0x3d01eb82	0.03171874
232	0xbe1d0c2e	-0.15336677
233	0xbe56cef8	-0.2097739
234	0xbdb95cea	-0.09050925
235	0xbcf67f9d	-0.030090148
236	0xbe5891ee	-0.21149418
237	0xbc34b880	-0.011030316
238	0x3e249a28	0.16074431
239	0x3e57eed1	0.21087195
240	0xbe1d2005	-0.15344246
241	0xbe626afe	-0.22111127
242	0xbdc03ac8	-0.09386212
243	0x3e5fda21	0.21860553
244	0x3db42d48	0.08797699
245	0x3b83cdcf	0.004022337
246	0xbe4e56b7	-0.20150267
247	0x3d38834f	0.0450471
248	0x3e75c7ea	0.24002042
249	0x3e263525	0.1623121
250	0x3e5619ab	0.20908229
251	0xbd90f07a	-0.07077117
252	0xbe0ae520	-0.13563967
253	0xbe2358ad	-0.15951796
254	0x3e1e3f80	0.15453911
255	0x3e3f8bcf	0.18705676
